ckpt/checkpoint_critic.pth (torch_old, 580588 bytes, 5 tensors)

fcs1.weight f4 [512, 24]
00000000: 6c0a 113f fba2 0e3f 8216 8bbd 2bbb 08bd
00000010: 8a05 ebbb 8483 c0be 4baf dfbd 05bf 65bd
00000020: d492 1a3f 17f4 193f 61c0 77bc 820f 3fbc
00000030: c356 3dbc b425 97be 7557 cf3b 5792 0c3d
00000040: 305f 333f 1578 ea3e 84c7 aebc 0b55 4abc
00000050: af14 da3d ef8a 0abf bd9a 57bb 70f7 333d
00000060: b2da 843e c222 1a3e 5d4c 3bbd 0608 4f3d
00000070: e6df 25bc 6ce1 00be 81fc f73c 79c1 90bb
00000080: 54c3 4d3e 9870 023e f92a 39bd ed4b d2bc
00000090: 3c0b d9bb 1339 80bd c6f4 5a3c fe06 87bd
000000a0: 685d 893e 21cc 253e 9f36 a83a 4722 663d
000000b0: 9cc7 9ebc 32cc ef3c 423d 89bb 31e9 93bc
000000c0: 3de3 b5bc 7efb b73f 6adc 2dbe c1f0 05be
000000d0: 0150 b3bc 2976 95bf ce93 39be b5c2 03be
000000e0: 9781 7f3e dc06 a33f b796 debd ee60 3dbe
000000f0: 0b19 a33e 756e f2bf bc92 0fbd 8223 3bbe
00000100: c72c a23e 24c5 7b3f c3f0 3bbd 214b a1be
00000110: afc9 cb3e 6d03 99bf 9791 adbd 87e6 a2be
00000120: a974 4a3e 78a8 993f 2a11 693c c1e1 42bd
00000130: e989 09bb c082 cabe 0725 6b3c 8609 98bc
00000140: 45e7 d63e 5efb 723f f787 60bd c240 5abe
00000150: ced3 d43d c512 9fbf 16b7 acbd aa5f 4abe
00000160: cae3 533f fb6d 6b3f a27a 9a3d b6c7 153f
00000170: 9a29 ac3d 2dcf 0fc0 3e88 8c3d f21b 1c3f
00000180: fa0c 393e 37de 9e3d d9ff 90bb c5fc 79bd
00000190: 4979 253c a557 d4bd 7176 46bd 74ba eabb
000001a0: 0515 483e 0be5 f63d c638 f9bb b1b4 553d
000001b0: 48b4 833c 1d64 b8bd 1a9b aabc ee66 773d
000001c0: 4683 413e 5c99 253e 247e ecbb ba7e 153c
000001d0: 0f5e 63bd 9d5b 90bd 343c e8bb 0f08 3ebc
000001e0: dbcc e63e 6007 983e fde4 c5bc ac14 693c
000001f0: 35a7 853d f478 febe f187 edbc 65d8 153c
00000200: 565a 0b3f c924 9d3e 60c7 d3bc af3f 25bd
00000210: 1ee3 7e3d bb07 94be 5fd7 4abc 9916 36bd
00000220: 0c3e c53e e7cd 9e3e 4fba 90bc 3f01 d43c
00000230: 196f 64bd 8360 2abe 431d 69bc 73c9 12bc
00000240: 6d6a c03e a995 d03d 49ab cbbd ce8c 66bd
00000250: e88d b63e ca15 f13d bfcd b5bd ab0e 73bc
00000260: cebd ea3e c277 053e f95f ddbd 299a 3ebd
00000270: 347c 803e ae44 ac3e 5496 14bd 3e3b 68bc
00000280: 10e7 153f d88c 423e fc99 2abc 46d7 d2bd
00000290: 1a64 2c3f 8d7b 90bf 0e82 a43c 3589 06be
000002a0: 04d0 a93e ca90 993e 2eaa c9bc 0531 03bc
000002b0: e996 7bbd 92e9 c5be 8b54 2dbd 0ff3 a43b
000002c0: ae43 e03e 0032 933e 0e6a 27bd 1453 d23d
000002d0: e0ff 123c 7627 23be c427 67bc aa02 323e
000002e0: 830a c23e 2e1b 9a3e 403c 38bd 0014 aebd
000002f0: 63d5 553e 90bb 36bd 5d50 693c bda3 2abd
00000300: 15e1 ef3e 5ac6 2b3e 1a73 81bd 0472 f0bb
00000310: f738 823d 01b9 04be ee9e efbc e0d5 1abc
00000320: 846e c33e ab98 413e 5aa7 6aba 270c 1c3e
00000330: ece7 98bd 233a b3bd 7d10 14bd 6b5e 913d
00000340: 81f0 e83e da3d 9f3e d511 e3bc fc78 c3bd
00000350: ff0d 76bd fc68 2ebd 2784 14bd 6c28 adbd
00000360: 0d2e f63d 35b7 f23e 4b13 a6bc 99fc c1bc
00000370: 6e63 94be a9cf 54be 708b 8abd ce21 9fbb
00000380: 30cd 8f3e c7da 213f 84b5 9abc c575 523d
00000390: 04c8 8f3c 54fb 473e 69ab 2ebd d151 70bb
000003a0: d2a7 dc3e 7062 353f 1e97 eebc a6f3 273c
000003b0: 5a05 9a3f 046f ed3c b8ec 39bd 1ed6 ad3c
000003c0: 3062 48be d7e4 363f 352f a33c 965e f23d
000003d0: 670b 3ebe 2832 2bbf 6167 45bd a9cc 8d3d
000003e0: 6103 93bd 79c9 303f b54b 133d f639 bcbd
000003f0: 5833 b53d c808 0ec0 1cb1 9b3d 6606 08be
0.5665653 0.5571744 -0.067914024 -0.033381622 -0.007172291 -0.37600338 -0.10922106 -0.056090374
0.6038029 0.60138077 -0.01512155 -0.011661412 -0.01155633 -0.29520953 0.0063275644 0.034319248
0.7006712 0.4579474 -0.02133537 -0.012349377 0.10648476 -0.54118246 -0.0032898628 0.043937147
0.259481 0.15052322 -0.045727123 0.05054476 -0.010124182 -0.12585992 0.03027177 -0.004417595
0.20094043 0.12738264 -0.045206998 -0.02567097 -0.0066236537 -0.06260886 0.013364023 -0.065931305
0.26829076 0.1619115 0.0012833661 0.056185033 -0.01938229 0.029272173 -0.0041882107 -0.01805553
-0.022203082 1.4373624 -0.16978613 -0.13080122 -0.021888735 -1.1676685 -0.1812279 -0.12867244
0.24951778 1.2736468 -0.1086859 -0.18494007 0.31855044 -1.8939959 -0.035052046 -0.18275264
0.31674787 0.9834769 -0.045883905 -0.3150263 0.3980231 -1.195417 -0.08475035 -0.31816503
0.19771065 1.2004538 0.014225284 -0.047578577 -0.0020986742 -0.3955288 0.01435209 -0.018559229
0.4197332 0.94914806 -0.054817166 -0.21313766 0.10391961 -1.2427603 -0.08433358 -0.19763055
0.82769454 0.9196469 0.075429216 0.5850786 0.08406372 -2.24702 0.06861924 0.6098014
0.18071356 0.07757228 -0.0044250307 -0.061032075 0.010099717 -0.10368279 -0.0484528 -0.00716334
0.19539268 0.12055405 -0.007605645 0.052174274 0.016077176 -0.0900347 -0.020825911 0.060400896
0.18897733 0.16171783 -0.0072171856 0.009124452 -0.055509623 -0.07048724 -0.007087255 -0.011598601
0.45078167 0.29693127 -0.024157042 0.01422612 0.06526033 -0.49701655 -0.028995486 0.009145831
0.54434717 0.30692127 -0.025851905 -0.040343937 0.062228315 -0.28912148 -0.01238045 -0.044455145
0.385239 0.31016466 -0.017666964 0.0258795 -0.055770013 -0.16638379 -0.014228168 -0.008959162
0.37581196 0.101847954 -0.099447794 -0.056286626 0.3565514 0.11771734 -0.088771336 -0.01483504
0.45847934 0.13033965 -0.10809321 -0.046533737 0.2509476 0.33646148 -0.036276177 -0.014174281
0.585557 0.1899904 -0.010412689 -0.102949664 0.6734024 -1.1287705 0.020081546 -0.13138278
0.33166516 0.29993278 -0.02461728 -0.008007293 -0.061423216 -0.38654763 -0.042316955 0.0050338577
0.43801636 0.28749084 -0.040872626 0.10269752 0.008972138 -0.15933022 -0.014108602 0.17383829
0.37898645 0.3009886 -0.044979334 -0.084999084 0.20882182 -0.044612467 0.0142403515 -0.04166006
0.4685141 0.16774884 -0.06320782 -0.0073378105 0.063585214 -0.12961198 -0.029250588 -0.009450406
0.38170254 0.18905894 -0.0008951329 0.15239011 -0.074661106 -0.08751323 -0.036148537 0.07098087
0.4549599 0.31101876 -0.027718464 -0.0954456 -0.06007194 -0.04258059 -0.036258843 -0.084549755
0.12020502 0.474054 -0.020272871 -0.023680018 -0.2898211 -0.20782341 -0.06764877 -0.0048563248
0.28086233 0.6322445 -0.018885382 0.051381845 0.01755143 0.19529468 -0.04264394 -0.003666986
0.43096787 0.7085333 -0.029124793 0.010250961 1.2032883 0.0289836 -0.04539177 0.021220263
-0.19568706 0.7144293 0.019919971 0.11834447 -0.18559037 -0.6687341 -0.048194293 0.069238015
-0.07178379 0.6905742 0.03596087 -0.09190743 0.08847684 -2.219286 0.0760214 -0.13283691

fcs1.bias f4 [512]
00000000: 0b01 0cbf f0fd a6be 5d64 8abf 993b 82bf
00000010: cce5 8ebe 3bae 1fbf 4868 81bf 3ab0 cdbe
00000020: 035f f6be bef1 b1bf 4c99 4cbf 4cfd 4bbf
00000030: fb6f a8be f091 ddbe 0cb6 26bf 5a30 dfbe
00000040: b67a 4cbf 52af 27bf 82c4 6abf d919 adbe
00000050: 7cb6 29be 014d e6be 328b 9cbf faec 8fbf
00000060: ce20 22bd b3cd afbe b8ed 92be 15dc eebe
00000070: 54a5 53be 98c8 d9be 05cb 13bf 7f31 38bf
00000080: 1a6a 57be ca2b c63e 0b27 c6bd 0370 5dbf
00000090: 4b69 a7bf eb43 65be c9cc 1abf 34f9 15bf
000000a0: 89b5 a5be b536 64bf 37c0 51be 993a fbbe
000000b0: 508a 37bd 665a 9bbe 8735 39bf eba0 acbf
000000c0: e64d 01be 61a5 a0bd b4cc 3bbf a5b5 27bf
000000d0: 6aba bdbd 826b c1be 6cad b6be 382c 5fbf
000000e0: 2f5b bdbe 1a03 d9bd e84c 18be 45a0 88bf
000000f0: dd5f 9dbe 01ff e3be 7e79 84be b21c df3e
00000100: 0602 84bf dab4 7abf ca65 bfbe 0fd3 a8be
00000110: c817 efbe 41af aabe 4885 d73c 2e1e eebe
00000120: 0c1d c33e 5b5d 06bf 1272 88be 0e4c 013f
00000130: dc3b 00bf db2a 89be ef79 ddbe a652 8abf
00000140: 2341 843e f582 a1be 19ba 35bc 9b2d bfbe
00000150: 059e eabe 21be 75be cc06 52bf 6e4c e5bd
00000160: 1da6 94be 4514 35be 368f cfbf ebae 0bbf
00000170: 0a03 0fbe 3c47 e6be 3819 fabe dbd9 afbe
00000180: bd4d 713d a76e 48bf eb10 27bf e0a8 9ebe
00000190: 8bf7 683d e650 7abf 70d9 27bf 1643 ba3d
000001a0: 70ae e8be e28c 06be 0225 d1be f150 febe
000001b0: bcd8 32bf e6fe 84bf 7e24 bcbe ad5d 34bf
000001c0: e13a 03bf 4902 c5be 69bc 363f 657d df3c
000001d0: 1431 0abf 13f5 d0be f052 cabf 42dc bdbe
000001e0: 1f7f 57bf 31e9 0ebf 69d7 e23d d47a 34bf
000001f0: 1954 a9bf c0ce 6bbc 5e20 55bf f6cb 37bf
00000200: 7281 183f c7c7 1bbe a0a6 12bf 015f 75bf
00000210: 9b4e aebe 8737 eebe b022 95bd f97d be3d
00000220: 7793 f0be 02ed dfbf 85d7 66be 7000 a5bf
00000230: 8191 1bbf 4a69 08bf 4ae6 4ebf 26f7 83bf
00000240: 1919 ee3d 5a42 50be a3e5 e1be c6c6 0ebf
00000250: a815 08bf d11a 763e d265 c1be 67bd 90bf
00000260: 548a d3be ac51 c0be 0371 ccbe 412c d6be
00000270: a024 b1be a079 aebd cfa1 a3be e27e b7be
00000280: de81 bdbe ec14 94bf e566 733f e099 d7be
00000290: 1f5e 8c3d 0972 3ebf e860 15bf 0005 19bf
000002a0: 27b0 d03d 0e66 b9be a61d f5be 7432 a2be
000002b0: 800d a8bf 8f9b 64bd 3090 00bf 7c9f acbe
000002c0: abaf 9cbe ddcf 2dbf 0309 7abe 2ced 803f
000002d0: 5d94 73bf 1923 7cbd ce5a 13bf 2768 37bf
000002e0: 59d7 1abf 3d1d dfbe a499 afbe 78b4 9abe
000002f0: 43d8 0abf 086b 08bf 84d3 cebe e175 cb3d
00000300: c6f0 14bf 7be7 29bd c92d 743c 2023 a9be
00000310: 1260 34bf 348d 9abf dffe 71bf d624 803d
00000320: 8682 b4bf 1a00 bfbd 5061 8abe 8b50 d3bf
00000330: 01b7 92be 564b f7be 4f84 c6be 1ad8 9bbf
00000340: b4ef efbf 8e34 a7be cae3 debe b2b7 95be
00000350: 44d9 05bf 991e 7a3e b994 a1be 11c3 febe
00000360: 9d5f 47bf c8d2 81be 4b10 1fbf 52ca a0be
00000370: 796d d1be aa42 66bf be60 e1bf fc68 e3be
00000380: 54d9 43bf 3c9b e5be 9ce8 42bf dc18 28be
00000390: 85a5 05bf df9a 58bc 9060 82bf acc9 6cbe
000003a0: eb50 61bf 3f8f e4be 85d4 04bf 0684 253e
000003b0: e059 8abf 9610 5bbf 31ce 92be 4c70 58bf
000003c0: efa4 e3be 1a4f 07bf 8932 c0be f011 3abf
000003d0: cf34 c1bd d714 75bf f5b9 65bf 5115 62bf
000003e0: 5700 46bf ed4d 59bf d49e 5dbf 1610 31bf
000003f0: a4b1 18bf 9b4d 61bf a905 8abe 6d76 41bf
-0.5468909 -0.32615614 -1.0811878 -1.0174438 -0.27909696 -0.6237523 -1.0109949 -0.40173513
-0.48119363 -1.3901899 -0.7992141 -0.79683375 -0.32897934 -0.43275404 -0.6512153 -0.43591577
-0.7987474 -0.6550189 -0.917061 -0.33808783 -0.16573519 -0.44980624 -1.2229979 -1.1244195
-0.039582066 -0.34336624 -0.2869699 -0.46652284 -0.20668536 -0.42535853 -0.5773166 -0.71950525
-0.21036568 0.38705283 -0.096754156 -0.8649904 -1.3079008 -0.2238919 -0.6046873 -0.5858338
-0.32365063 -0.89145976 -0.2048348 -0.49068144 -0.04480964 -0.30342406 -0.723473 -1.3486608
-0.12627372 -0.078440435 -0.7335923 -0.6551154 -0.09264071 -0.37777334 -0.35679185 -0.8717685
-0.3698363 -0.10596295 -0.14873087 -1.067391 -0.307372 -0.4453049 -0.2587394 0.4357658
-1.0313118 -0.9793221 -0.37382346 -0.32973525 -0.4669783 -0.33336833 0.02630867 -0.465074
0.38108099 -0.524862 -0.2664953 0.50506675 -0.5009134 -0.2679051 -0.4325709 -1.0806472
0.25830945 -0.31545225 -0.011091732 -0.37339482 -0.45823684 -0.2399831 -0.8204162 -0.111962184
-0.29032984 -0.17683513 -1.621558 -0.5456378 -0.13966003 -0.44976223 -0.48847365 -0.34345898
0.058912028 -0.7829384 -0.6526019 -0.30988216 0.0568767 -0.9777969 -0.6556616 0.09094827
-0.45445585 -0.1313968 -0.40848547 -0.49671128 -0.6986196 -1.0390289 -0.3674659 -0.7045544
-0.5126172 -0.38478306 0.7138124 0.027281472 -0.5398114 -0.40811977 -1.580656 -0.37082106
-0.84178346 -0.5582457 0.110762425 -0.7049992 -1.322879 -0.014392555 -0.83252513 -0.71795595
0.5957252 -0.15212928 -0.572855 -0.9584809 -0.34044346 -0.4652674 -0.07282007 0.09301371
-0.46987507 -1.7494204 -0.22543152 -1.2890759 -0.60768896 -0.5328566 -0.80820143 -1.0309799
0.11625881 -0.20337811 -0.4412051 -0.55772054 -0.53158045 0.24033667 -0.37772995 -1.1307801
-0.41316473 -0.3756231 -0.3992997 -0.41830638 -0.34598255 -0.08519292 -0.31959388 -0.3583899
-0.37013143 -1.1568885 0.9507888 -0.42109585 0.0685389 -0.74392754 -0.5835099 -0.59773254
0.101898484 -0.36210674 -0.47874182 -0.31679118 -1.312912 -0.055812415 -0.5022001 -0.33715427
-0.30602774 -0.678953 -0.244175 1.0072379 -0.9514826 -0.06155691 -0.5756043 -0.716433
-0.60484844 -0.43576995 -0.34296906 -0.30215812 -0.5423624 -0.53288317 -0.4039575 0.09934593
-0.5817989 -0.041480523 0.014903494 -0.3303461 -0.7045909 -1.2074342 -0.9452953 0.06257026
-1.4102333 -0.09326191 -0.2702737 -1.6508955 -0.28655246 -0.48299664 -0.38772818 -1.2175324
-1.8745027 -0.32657284 -0.43533164 -0.2924171 -0.52284646 0.24425735 -0.3155878 -0.497582
-0.7788027 -0.25356126 -0.62134236 -0.31404358 -0.40903834 -0.8994547 -1.7607648 -0.44416034
-0.7650349 -0.44844997 -0.76136184 -0.16415733 -0.5220569 -0.013220518 -1.0185719 -0.23123807
-0.88014096 -0.44640538 -0.5188678 0.16163644 -1.0808678 -0.85572183 -0.28672937 -0.8454635
-0.44461772 -0.52855074 -0.37538555 -0.7268362 -0.094339006 -0.95734924 -0.8973687 -0.88313776
-0.7734427 -0.8488453 -0.8657048 -0.6916517 -0.5964606 -0.8800904 -0.26957443 -0.7557133

fc2.weight f4 [256, 514]
00000000: 1466 31bd c59e 43bd 7e87 163d cf34 103c
00000010: 7bdb 5dbc bdae 173d decf 6cbd 9f33 25bd
00000020: d9fa 1ebc 9f40 f43c ee22 243d 7ac7 443c
00000030: 3220 863a af5a 80bc 039b 61bb 81ba b63c
00000040: 9a01 72bd 3f54 6abd 7644 f5bb 185d 043c
00000050: 83c8 5fbd c45d 693d b432 5cbd aeba 0a3c
00000060: 9258 e33c cf3d b83c 1370 f3bc 25cc 32bd
00000070: 9d61 0abd 5dfa abbd 1300 02bd 384c 19bd
00000080: 6e3b adbc 52c7 4cbd 9cda 463d 6818 3c3d
00000090: 1078 bc3c 128c 09bd 8a27 1fbd cb3f b3bd
000000a0: adb3 63bd fa6d 013c f2f4 01bd 89f7 5aba
000000b0: ba5d 47bd 8b68 043d 73b4 c3bc 5bb7 65bd
000000c0: 49f0 49bc e97b 66bd 4003 803a 7a63 9d3a
000000d0: c76e dfbb 8dd3 04bd 8266 503b 3cd9 83bd
000000e0: 94f9 e6bc 7537 c4bc 30de 62bd aded bd3c
000000f0: 3dd4 c63c b4f8 76bd 7962 4bbd fdd2 06bd
00000100: 2f74 e73c 4ac5 a83c f33b 6c3c cc2b acbd
00000110: efbe 8fbc 8379 353d 8205 8cbb f58b f93c
00000120: c56e 6abd e2e6 adbb 2c6d b2bc cd6d 2cbd
00000130: 59b6 3dbd 0a46 b63c 2684 23bd 6740 8bbd
00000140: 4d01 3fbd 7d70 8abb a44d c1bc ae04 98bd
00000150: 2a79 c2bc 2fce fe3c f036 1abd e6ca 78bd
00000160: 63ad 1ebd af87 16bd db11 30bd 6ac5 63bd
00000170: 052e 1fbd df59 ac3c ce25 e4bc 094c 843c
00000180: 3e07 343d 7d09 6fbc 546e 93bd ea54 8abd
00000190: d122 b4bd 41ce c4bc 9b09 8c3b a429 df3b
000001a0: 5caf 04bd c08f 15bd ab21 1c3d 5425 32bd
000001b0: cd90 e13c ab7d 96bc b962 29bd 32c9 3e3c
000001c0: 0abf 7dbc f44e 3dbd f8ef 4bbd a78b 473d
000001d0: 8810 1dbc 3ee8 4dbd 945f 2d3d 40d8 4d3c
000001e0: 8ce8 333b 35a9 ebbc 4a78 323c d46c 6dbd
000001f0: 9c4d 25bc ca56 0c3d 26a4 a33c f454 20bd
00000200: 2a26 80bd 45e7 b9bc 21a4 62bd ca98 8dbb
00000210: 8e79 12bd d757 1e3d 0aa6 a8bc 3242 1fbd
00000220: 5dc3 063b e391 63bd 7ede 813c 1663 64bd
00000230: 6f85 063c 6a35 6fbd 5f81 973c c50e a13c
00000240: c10c 033d 4831 603d fb39 babc b0e8 aebc
00000250: 96f7 583d f10b a03c 30f2 293c e3ad be3b
00000260: 02af d2bb 3636 373c f3d4 8a3b 1954 54bd
00000270: c46b f8ba fd6a 61ba 0aca a1bd 8b46 b0bc
00000280: 843b af3b 6de1 d9bb accb 17bd b0dd de3c
00000290: aad5 f13c a4fb c73c 3281 ec3a a1c4 43bb
000002a0: c115 b8bc 402a c43c e346 113d 18ec 4d3d
000002b0: 7328 94bd 8470 20bd 8485 8f3c 1815 2abc
000002c0: d7ac 69bd 22e5 06bd 3a4f da3c a5fc 96bd
000002d0: bc50 a2bc fa0a 24bd 407b 7ebd c29d f0bc
000002e0: ed48 96bd f657 2e3d f2dd 723c 1857 1abc
000002f0: 87cd 3a3b 8e04 a1bc 4a75 983c 9c2e 2f3d
00000300: 6d54 7bbd e29c 1fbd 9a47 e1bc 0598 593c
00000310: 2f4a 92bc 968f 66bc 1e4f 433c dc6b 3bbc
00000320: 2e24 3ebc 7599 d03c d9a4 153d fa8b 2e3d
00000330: 67ae 853c 9505 633d 1a4c 71bd 483e 5ebd
00000340: f440 8bbd b966 2ebb a866 59bd 4c0e d9bc
00000350: 0f98 593d 93bb 9b3b 89a2 db3b cc0d 83bd
00000360: a30a 4ebd fe88 3f3d b640 f4bc 75d2 daba
00000370: d21b 8fbd cace 8cbb e592 8abd 139e c8bd
00000380: 8dfe 4ebd 5fe7 a9bc 5b01 22bc a066 383c
00000390: 1465 043d efb5 543d edaa 46bd b571 343d
000003a0: 1498 e3bc 185e 6fbd 02db 60bd 593c 85bc
000003b0: c2c8 c53c 4a41 8e3c a6a6 acbc 21ff 5bbd
000003c0: 1c3b dcbc ec7b c9bc ff45 073d a6cd babc
000003d0: f9fa cdbd 1002 0dbd 1126 5ebd 7ca6 fc3c
000003e0: a8a9 71bd 03a5 25bc cbbf e53c 939d 6cbc
000003f0: bf6b 1f3d 5475 c5bc 5511 363a 59db 283d
-0.04331024 -0.047758836 0.03675031 0.008801653 -0.013541098 0.037031878 -0.057815425 -0.040332433
-0.009703361 0.02981597 0.040072374 0.01201045 0.0010232984 -0.015668241 -0.003442467 0.022305729
-0.05908356 -0.05720925 -0.007484968 0.008078836 -0.054634582 0.056974187 -0.05375929 0.0084673595
0.027752195 0.02249041 -0.029716527 -0.04365172 -0.033784498 -0.083973624 -0.031738352 -0.037426203
-0.021146502 -0.049994774 0.048548326 0.045921713 0.023006469 -0.033580847 -0.038856067 -0.08752402
-0.055591274 0.007899756 -0.03172774 -0.00083529257 -0.04867337 0.032326262 -0.023889756 -0.056083065
-0.012325355 -0.056270514 0.0009766594 0.0012007796 -0.0068186256 -0.032428313 0.003179938 -0.064379185
-0.02819518 -0.023952225 -0.055387676 0.023184622 0.024271125 -0.060295776 -0.049654458 -0.032916058
0.028253643 0.020601887 0.01441859 -0.08406791 -0.017547099 0.044305336 -0.0042731175 0.030462245
-0.057234544 -0.0053070644 -0.021780573 -0.0420969 -0.04631648 0.022250194 -0.03992095 -0.06799393
-0.0466321 -0.0042248354 -0.023596592 -0.074227676 -0.023739416 0.031104175 -0.03765005 -0.060740374
-0.038739573 -0.03675049 -0.04298578 -0.05560819 -0.038862247 0.021038948 -0.027850058 0.016149538
0.04395222 -0.0145896645 -0.07198778 -0.06754477 -0.08795703 -0.02402413 0.004273606 0.006810384
-0.0323938 -0.036514044 0.038118046 -0.04349263 0.027534867 -0.01837047 -0.041353915 0.011644648
-0.015487442 -0.046217874 -0.0497894 0.048717167 -0.009586461 -0.05027031 0.04232748 0.012563765
0.002745184 -0.028767208 0.010892937 -0.057965115 -0.010089304 0.034262456 0.019975733 -0.039143518
-0.06257279 -0.022693286 -0.055332307 -0.0043211924 -0.035760455 0.03865799 -0.020586986 -0.03888149
0.0020563223 -0.05555905 0.015853163 -0.05575856 0.008210524 -0.05840055 0.018494306 0.019660363
0.031994585 0.0547345 -0.022732725 -0.021351188 0.05297049 0.019536944 0.010372683 0.0058190688
-0.006429554 0.0111823585 0.0042368113 -0.051838014 -0.0018953015 -0.00085990113 -0.07899864 -0.021518013
0.005347671 -0.0066491873 -0.03705947 0.027205318 0.029520828 0.024411984 0.0018043874 -0.0029871839
-0.02247131 0.023945928 0.035467993 0.050273985 -0.072342776 -0.039169803 0.01751972 -0.010381006
-0.0570496 -0.03293336 0.026649106 -0.07372407 -0.019813888 -0.04004953 -0.06212926 -0.0293721
-0.07338128 0.042564355 0.014823424 -0.009420179 0.0028503851 -0.019655492 0.018610615 0.04276906
-0.06135981 -0.038967974 -0.027499963 0.013280873 -0.01785764 -0.0140723195 0.0119207185 -0.01143929
-0.011605306 0.025463799 0.036534164 0.04261396 0.016318513 0.055425245 -0.058910467 -0.054258615
-0.06799498 -0.002661152 -0.053076416 -0.026496075 0.05312353 0.004752585 0.0067027253 -0.06399116
-0.050303113 0.046761505 -0.029816013 -0.0016694801 -0.06987728 -0.004297112 -0.06766299 -0.09795775
-0.050535727 -0.02074021 -0.0098880185 0.011254936 0.032322958 0.051931318 -0.04850285 0.044053752
-0.027782477 -0.058439344 -0.054896362 -0.016264128 0.02414358 0.017365117 -0.021075558 -0.053710107
-0.026883654 -0.024595223 0.033025738 -0.022803139 -0.10057635 -0.034425795 -0.05423552 0.030841105
-0.058999687 -0.010110143 0.028045556 -0.0144418655 0.038921114 -0.024103798 0.00069453317 0.04122481

fc2.bias f4 [256]
00000000: 0ebc e7bd 001a a2bd e1c9 84bd a22f b9bd
00000010: 0835 a1bd 230f 08bd b244 28be 5c1f 10bd
00000020: 8ed0 cfbd fa83 ecbd d72e debd 250e c3bd
00000030: f37c 00be 65d6 85bd 278f 10bd e970 91bd
00000040: f299 90bd c950 16be 5fd3 d1bd c2d0 c7bd
00000050: 2e75 bebd 28a1 98bd 0bcf 05be 4030 e6bd
00000060: 244e d6bd 94c0 13be 2f8f 9cbd 3047 afbd
00000070: 6a86 95bd 7299 99bd d1fc 92bd 42e1 36bd
00000080: 8598 d9bd 089b 18bd f29b b5bd 48aa 60bd
00000090: 7018 6fbf f4a2 9bbd bd11 d7bd f481 c6bd
000000a0: 04ce bbbd dede 24bd b0ed c9bd f868 34be
000000b0: 3d64 18bd 2b74 b0bd 07f1 07be 0b37 6cbd
000000c0: 2b10 05be 48de d2bd db4c cdbd 1ce5 dbbd
000000d0: f419 65bd fbf4 75bd 0dfd 883f 01a8 3b3f
000000e0: 7920 06be ed30 a0bd 8c72 69bd 9d9d 7dbd
000000f0: 1e07 ffbc 75f0 9fba 58ed b7bd abaf 82bd
00000100: 59d8 dbbd 3a93 80bd 7cd7 45bd 17b3 9ebd
00000110: 7730 19be 6616 9abd d4aa cebd ecff e9bd
00000120: c92a a7bd 379e ddbd 5c14 e1bd ad5c babc
00000130: 5e25 10be 3a41 c8bd 04b7 09bd 102c 42bd
00000140: 8910 a5bc 06b7 e4bd 3b7d 10be ce0d 9bbd
00000150: 3d3a b4bd 9b7a b5bd 466c d0bd 630c c0bd
00000160: 07eb b5bd 884b cebd 3bc0 a5bd ed61 7fbd
00000170: bcc9 94bd 1b12 0fbd 40b0 903b 2994 ffbd
00000180: 4705 0bbe a02c 3bbd b3aa 53bd a10c aabd
00000190: ef8e 1fbe 0cf7 49bd f6fb c4bd 89c1 2ebd
000001a0: 6b81 b9bd c74e f1bd 8f1e a9bd 77c4 46bd
000001b0: c5c2 54be c0fd 15be 14a8 1cbd 5fc7 c6bd
000001c0: 8e5c 99bd 2e63 ffbd 4440 8cbd 7803 02bf
000001d0: f23b b4bd b901 d8bd ed50 f2bd 5f3f 29bd
000001e0: 9b02 49bd 849a f0bd d3ab 06bd 2d69 aebd
000001f0: 7312 61bd 84af d4bd 2fcc fabd 32ee abbd
00000200: 78a4 03be 50c7 07be 63aa c4bd 1bf2 9abd
00000210: e704 a6bd 10e5 b8bc 12bd c2bd e160 c8bd
00000220: 2f77 99bd 84a7 1cbd ef07 83bd 6c98 09be
00000230: 76db aabd 2a99 73bd ec0a eebd d5b3 eabd
00000240: fa0a 41bd 4e58 9ebd e2fb a0bd 2b06 c3bd
00000250: 1e70 10be c0f2 a5bd 9428 a33f 6b8f e8bd
00000260: e431 91bd 301c 61bd 8dba bfbd aac7 b4bd
00000270: 25eb 26bd 0c10 45bd caef 98bd d556 10be
00000280: 0785 94bd a617 2bbd 2325 94bd 3dcb 02be
00000290: ce25 85bd d32f bebd f533 66bd 431c debd
000002a0: cc6d afbd 44d5 1bbf df93 87bd 4ada 81bd
000002b0: bc5b c4bd 0999 d1bd cb35 16be cff2 a1bd
000002c0: 18e9 e2bd 48b8 a0bd 90ff 2fbd 2d05 34bd
000002d0: 4fc3 98bd 5945 f9bd ff2b 59bd f426 c9bd
000002e0: 890e bfbd e589 8ebd 35f3 acbd 4e98 b4bd
000002f0: 1a59 55bd a9ea 7abd fc77 ddbd 4068 93bd
00000300: 40f8 18be 4b1c cbbc b906 3dbd 286d 05be
00000310: 16f0 afbd 16c0 a6bd eac2 babd cfe0 11bf
00000320: 531d 11be e445 c2bd 98cb 03be 60db 8bbd
00000330: c825 9dbd 0bf2 06be c8dc 7fbd 2106 9c3f
00000340: 2640 90bd b957 1fbe 6ca7 5b3d e4e5 cabe
00000350: c8a7 19bd 59f5 c0bd a36e c3bd 6cd2 0abd
00000360: ba3f 95bd 3129 c0bd 5c55 e0bd d909 aebd
00000370: f2f2 83bd 0a0b 04be 9e4e 04be 67f7 b1bd
00000380: cbdf e2bc 2686 debc cb0e d3bd e757 05be
00000390: b23c f8bd 29fc 37bd f6c1 fbbd 35e6 f2bd
000003a0: 60d1 0ebe 77f8 aebd 1f25 d4bd 9577 97bd
000003b0: b480 c8bd 1b70 0ebe dba5 11be e652 f3bb
000003c0: 7e93 6abd 386b c0bd dd7f debd c623 20bd
000003d0: 0f45 3fbf 6a0f dfbd a246 33bd 9302 debd
000003e0: ad10 7dbd e35d 49bd 3e65 2bbc a487 cfbd
000003f0: 4d13 a0bd 5fbf 82bd 593f 5fbd 69c5 1d3f
-0.113151655 -0.07915115 -0.06483818 -0.09042288 -0.07871443 -0.03321756 -0.16432455 -0.035186157
-0.101472005 -0.1154861 -0.10848778 -0.09524182 -0.12547664 -0.06535033 -0.03529277 -0.07101614
-0.07060613 -0.14679255 -0.10245394 -0.09756614 -0.09299694 -0.07452613 -0.13067262 -0.11239672
-0.10464123 -0.14428931 -0.076444976 -0.085585 -0.07301028 -0.074999705 -0.07177127 -0.044648416
-0.10624794 -0.037257224 -0.08867635 -0.054849893 -0.93396664 -0.0759944 -0.1050143 -0.09692755
-0.09170154 -0.040251605 -0.098597884 -0.17618167 -0.03720497 -0.08615907 -0.13275538 -0.05766968
-0.12994449 -0.10296303 -0.10024425 -0.107370585 -0.055932954 -0.060048085 1.0702225 0.7330323
-0.13098325 -0.07821832 -0.056994006 -0.06191789 -0.031131323 -0.0012202399 -0.089808166 -0.06381162
-0.107346244 -0.06278081 -0.048301205 -0.077490024 -0.14959894 -0.075238034 -0.10091177 -0.11425766
-0.081624575 -0.10821193 -0.10990211 -0.02274927 -0.14076754 -0.09778066 -0.033621803 -0.047405303
-0.020149486 -0.111677215 -0.14110272 -0.075709924 -0.088001706 -0.08861276 -0.101769015 -0.093773626
-0.088827185 -0.10073 -0.08093306 -0.06234925 -0.0726504 -0.034929376 0.004415542 -0.12479431
-0.13576232 -0.045696855 -0.051676463 -0.0830319 -0.15581869 -0.049307868 -0.0961837 -0.04266504
-0.09057888 -0.11782604 -0.08257782 -0.048527207 -0.20777424 -0.14647579 -0.03824623 -0.09705996
-0.074883565 -0.12470089 -0.06848195 -0.5078654 -0.08800496 -0.105472036 -0.118318416 -0.0413202
-0.04907475 -0.117482215 -0.032878708 -0.085161544 -0.054949235 -0.103850394 -0.12245976 -0.083950415
-0.12855709 -0.13259625 -0.09602811 -0.07565709 -0.08106404 -0.022570163 -0.095087186 -0.09784103
-0.074934356 -0.038245693 -0.063979976 -0.1343705 -0.0834264 -0.05947224 -0.11623177 -0.114600815
-0.04712961 -0.077316865 -0.07860543 -0.09522661 -0.1410527 -0.081029415 1.2746758 -0.1135548
-0.07089594 -0.054958522 -0.093617536 -0.088271454 -0.040751595 -0.048111007 -0.07467611 -0.14095624
-0.072519355 -0.0417706 -0.07233646 -0.12772842 -0.06501351 -0.092864655 -0.056201894 -0.10845234
-0.08565864 -0.6087229 -0.06620001 -0.063404635 -0.095878094 -0.10234267 -0.14668958 -0.0790764
-0.11079615 -0.07847649 -0.042968333 -0.04395025 -0.07459127 -0.1217143 -0.053020474 -0.09821883
-0.09328944 -0.06959895 -0.084448256 -0.08818112 -0.052086927 -0.061258946 -0.10813901 -0.071976185
-0.1493845 -0.024793765 -0.04614899 -0.13029921 -0.08590715 -0.08142106 -0.09119208 -0.56983656
-0.14171343 -0.09485987 -0.12870634 -0.06828952 -0.07673222 -0.1317827 -0.062466413 1.218937
-0.07043485 -0.15560807 0.053626463 -0.39628518 -0.037513524 -0.09421796 -0.09542587 -0.03389208
-0.072875455 -0.09382857 -0.10953781 -0.08497972 -0.064428225 -0.12894836 -0.12920615 -0.086897664
-0.027694603 -0.027163576 -0.10305556 -0.13021813 -0.12120952 -0.044918213 -0.122928545 -0.11860315
-0.13947058 -0.08543485 -0.10358643 -0.07395855 -0.09790173 -0.13909952 -0.14223425 -0.0074256537
-0.057269566 -0.0939545 -0.10864232 -0.039096616 -0.7471475 -0.10891612 -0.043768533 -0.10840335
-0.06178348 -0.049161803 -0.01046115 -0.10133293 -0.07816181 -0.063841574 -0.054503772 0.6162935

fc3.weight f4 [1, 256]
00000000: 058e 4fbb 7f12 00bd fd51 203b 76aa 923c
00000010: 0edd b0bc e447 d3bc 89bf 00bd 77da 62bc
00000020: 28e1 f33c 86c4 653c 7f75 e93b f4dd d13c
00000030: aaf1 96bc 0b2e 733c 148e 50bb c3fd d33c
00000040: 2275 a8bc a5d7 903c f4ea c83c f99c c13c
00000050: e865 babc 02fc af3b 7ce7 1bbc 64bb ddbc
00000060: dddb db3c b7dd f2bb a88a fdbc 6ae7 b73b
00000070: ab92 853c a38c 4ebc d4dd 883b 65be bd3c
00000080: 30bc e53b 0e91 af3c 80fc af3c 0a48 883b
00000090: 62a9 8ebb bfe5 fd3c 5dc7 d5bc 0001 e73c
000000a0: 0be3 9d3b 35a3 eabb f9ea fa3b 50d5 173c
000000b0: 5752 183c 9ab7 d4ba d5b9 a83c 403e 67bc
000000c0: ba50 133b 9950 2e3c 0caa da3c ad3c 103c
000000d0: e094 99bc 1e9a a0bc f74a 963c 60c0 a93c
000000e0: ff86 a4bc bf26 8f3c 72e5 cf3a eb01 a5ba
000000f0: f5f6 613a 94ad 033d 0c80 813c e36d fdbc
00000100: 5c31 42bb 858c 61bb f537 60bb c1e1 f53c
00000110: c292 1b3c ba78 b1bc 2a4a f43c 445c 8f3c
00000120: 40a2 3ebb 8cb8 dd3c 9ec6 f5b9 52c2 a1bb
00000130: 389c db3c 8000 f03c fbe6 d13c 4a33 4bbc
00000140: b4d8 d63c 831f 6c3c 645d efbc aee6 973b
00000150: 5bd2 ffba 4781 f63b 7ba8 14bc 2527 d5bb
00000160: 8b53 9fbc 49fa ca3c d469 a73b 3ecc c9bb
00000170: b6e2 5e3c 30b7 563c 2bb4 57bb c795 70bc
00000180: b277 bc3b d7ca 6d3c ecc0 cdbc 7687 3abc
00000190: bdf3 bc3c 1dfd 82bc daa9 f8bb 0b87 103a
000001a0: 10f3 f7bb eea4 893a b9f7 04bc c1e3 753b
000001b0: ea06 82bd e81f 563c f262 4fba eddd f2bc
000001c0: eb68 df3c efe6 1f3c fc57 653c ce60 81bc
000001d0: ba83 5cba 93b3 4f3b efa5 6ebc 5afd 9bbc
000001e0: 5e29 c33c b850 14bc bf1d e53b 431f a13c
000001f0: b678 4a3c 9591 e2bc 351d 413c 7d2a 8dbb
00000200: 0112 1d39 ce7a 32bc 168d b4bc 2245 073b
00000210: 923f 06bc 7af0 afbb 8501 093c e412 ef3c
00000220: 3e5b e93c 611e 0f3c b905 233c d4ac 6a3c
00000230: 5527 e3bc 4dca 38bc a75a 7b3c 9f4f cebb
00000240: 8363 f7bc a58a bfbc 287d bc3c 4b98 6abc
00000250: e9aa f33c c4ca 15bc 735a b2bc c7f1 ff3b
00000260: 5e1f 093c 7236 c63c 8e13 92bb 5ee1 af3c
00000270: ab9e 9cbc 5872 693b 827d 133c e0d8 83bb
00000280: 2f70 28bc 1be8 f23c 981e 6cbc 53be b6bc
00000290: 7d40 493b cd42 8dbc 786b acbc efe7 d8bc
000002a0: d135 f63c a0a3 76bd bd13 e4bc 6815 8d3c
000002b0: cbf6 c73b 06b1 e0bc dbe5 c23c 7dab fb3a
000002c0: 8a7b a2bc cf79 82bc f6f2 e13c b1db e2bc
000002d0: 824a 5e3b 2d1a e9bc f75e a0bb 937d dbbc
000002e0: 7a9b b0bc c813 4ebc d76f e0bc 583b cbbc
000002f0: faa5 edbc ad25 64bc 7688 8fbc d5ef 82bb
00000300: 79f1 ee3c 4016 99bc 2b3e 613c 2611 dbbc
00000310: 64a2 93bc bde8 71bc b7b8 db3b 0a4f 3bbd
00000320: 3ee4 23bc e45c e9bb 2d9a d0bc d4fb f63b
00000330: aecb 63bc b271 383c d54e 8ebc 17bc d2bc
00000340: b653 043a f554 38ba ce8a a3bc 774f c5bc
00000350: 9e88 0bbc a410 9cbb 8929 713b 479a 833b
00000360: c24f 933c 0c00 59bc 915d 9dbb 9d3a e13c
00000370: 36e2 6cbc 70fc 2dbc b430 14bc 602b ea3c
00000380: df93 d33c 645c 21bc 5fc9 ce3a 924f 793b
00000390: ec43 87bb 8577 bfbc af1f 45bc a17b 76ba
000003a0: ace8 56bc 8ecc 163b e65d a63c 1586 6f3b
000003b0: fb8a 9bbb bd3c d33c 426b 4e3b 11ff e23b
000003c0: 20cd 0bbc d7a0 18bc ccad 783c cd91 883c
000003d0: d9ed d0bc a243 063a f657 d1bc 1b57 cbbc
000003e0: f183 363c 3a7e 5d3c 0c6e a73c 7797 d739
000003f0: c6af ea3c 3389 de39 f9d7 c53c e0c0 853c
-0.0031670344 -0.03126764 0.0024462931 0.017903548 -0.021589782 -0.025791116 -0.031432662 -0.013846031
0.029770449 0.014023906 0.0071246023 0.02561853 -0.018425781 0.0148425205 -0.0031822966 0.025877839
-0.020563666 0.017680952 0.024526097 0.02363442 -0.02275367 0.005370618 -0.009515639 -0.027066894
0.026838237 -0.0074116844 -0.030949906 0.0056123035 0.016305288 -0.012606773 0.0041768346 0.023162076
0.007010959 0.021431472 0.021482706 0.0041589784 -0.004353688 0.03099334 -0.02609604 0.028198719
0.0048183254 -0.007160569 0.0076574055 0.009267166 0.009296975 -0.0016229034 0.020596424 -0.014113963
0.0022478537 0.010639333 0.026692413 0.008803529 -0.018747747 -0.019604739 0.018346293 0.020721614
-0.020083902 0.01747453 0.0015861227 -0.0012589073 0.00086198683 0.03214796 0.015808128 -0.030936187
-0.0029631471 -0.0034416032 -0.003421304 0.030014874 0.009495439 -0.021664012 0.02982052 0.01750005
-0.0029088408 0.027065538 -0.00046878023 -0.004936495 0.02680789 0.029297113 0.025622835 -0.012402365
0.026226379 0.01441181 -0.029219337 0.0046356535 -0.0019517647 0.0075227353 -0.009073372 -0.0065049105
-0.019449016 0.024777548 0.0051090512 -0.006158381 0.013603857 0.013105199 -0.0032913785 -0.014684147
0.0057515735 0.014513693 -0.025116406 -0.0113848355 0.023065442 -0.015989834 -0.0075886073 0.0005513287
-0.007566817 0.0010501423 -0.008115702 0.0037519785 -0.06348975 0.0130691305 -0.00079111673 -0.029646838
0.027271708 0.009759649 0.013998028 -0.01579323 -0.0008411963 0.0031692728 -0.014565929 -0.019041706
0.023823436 -0.009052448 0.0069920714 0.019668227 0.012357881 -0.02765731 0.011786749 -0.0043080435
0.00014979394 -0.010893537 -0.022039931 0.0020640572 -0.008193867 -0.005369243 0.008362179 0.029183812
0.02848589 0.00873527 0.009950095 0.014323432 -0.027728716 -0.011278701 0.015341437 -0.0062961127
-0.030198818 -0.02338154 0.023008898 -0.014318536 0.029744582 -0.009142581 -0.021771645 0.0078108045
0.008369295 0.024195883 -0.0044578975 0.021469768 -0.019118628 0.0035621133 0.009002091 -0.0040236562
-0.010280653 0.029651692 -0.014411591 -0.02230755 0.0030708604 -0.017243767 -0.021047339 -0.026477782
0.030054959 -0.06021464 -0.027841443 0.017222121 0.006102418 -0.027428161 0.023791244 0.0019200888
-0.019834299 -0.015927223 0.027581673 -0.027692648 0.0033918922 -0.028454864 -0.004894133 -0.026793277
-0.021558512 -0.012577958 -0.02739708 -0.02480857 -0.029009808 -0.013924998 -0.017521124 -0.0039958754
0.029167878 -0.018687367 0.013747732 -0.026741575 -0.01802177 -0.014764962 0.0067053693 -0.045729674
-0.010003148 -0.007121669 -0.025464142 0.0075373445 -0.0139035415 0.011257576 -0.017371574 -0.025724454
0.00050478743 -0.00070317026 -0.019963648 -0.024085743 -0.008516459 -0.004762726 0.0036798439 0.004016194
0.017982367 -0.01324464 -0.0048024138 0.02749377 -0.01445823 -0.010619268 -0.009044815 0.028585136
0.025827346 -0.009848688 0.0015776566 0.0038041812 -0.00412797 -0.023372421 -0.01203148 -0.00094025774
-0.013116997 0.0023010108 0.020308446 0.0036548425 -0.0047467924 0.025785798 0.0031497036 0.006927379
-0.008532792 -0.009315691 0.015178155 0.016671086 -0.02550404 0.00051217724 -0.025554638 -0.024821809
0.011139856 0.013518864 0.020438217 0.00041120846 0.028648268 0.0004244536 0.024150835 0.016327322
