ckpt/checkpoint_actor.pth (torch_old, 579565 bytes, 6 tensors)

fc1.weight f4 [512, 24]
-0.055190735 0.05866836 -0.0016994062 -0.009827 -0.10172886 0.07979875 -0.003621873 0.021195933
-0.052453026 0.0391384 -0.015790557 0.04059279 0.020849256 -0.09443708 0.0085544 0.0056209555
-0.06614481 0.07229145 0.006778912 0.041398354 0.19996259 -0.21322413 -0.018078048 0.012515779
0.058564562 0.10153782 -0.02055197 -0.038033552 0.0020849365 0.06845646 0.013875465 -0.10507431
0.012374265 0.08513806 -0.08207657 -0.027656011 -0.088784434 -0.004437371 -0.062459268 -0.07997223
0.05614564 0.032295886 -0.031329636 -0.10922394 -0.20898642 -0.038775567 0.029870586 -0.04984426
0.045151915 -0.021996198 0.020937033 -0.0056192344 0.14044425 0.07587155 -0.022133905 -0.050097793
0.036748562 0.044439606 0.012332871 0.009236286 0.14672947 0.13408841 0.02280271 0.01695841
0.00018114479 0.049044486 0.044713665 -0.020312157 0.19304529 0.111355476 0.004041211 0.018957343
0.08130068 0.06422051 0.022048136 -0.031441044 0.061457153 -0.006737721 -0.061818846 -0.016893273
0.10077931 0.008770544 0.012492309 -0.061289545 0.096152246 -0.030614289 -0.05322103 -0.05908651
0.028555335 0.055645823 -0.025169812 0.05935097 0.13853028 -0.14740951 0.0048531666 0.12031021
-0.025879377 -0.011325338 0.025222361 0.02303911 0.0083000045 0.2194069 -0.014095692 0.0790774
-0.027022053 -0.08234725 0.015832495 0.034689892 0.07542609 -0.044825807 -0.010873369 -0.03725894
-0.068898916 -0.0038201709 0.004552125 0.0030937926 0.09872753 -0.3190664 -0.011233589 -0.011083381
-0.015081793 -0.08766159 0.011311956 0.038015198 0.2051124 0.042630367 -0.024032569 -0.0016713155
-0.009585682 -0.05123388 -0.003131511 -0.016131563 0.12877367 0.07055701 -0.01923958 0.0057539167
-0.10636812 -0.07770489 -0.013921999 -0.0023638061 0.01679055 0.012010919 -0.005935185 0.0017894567
0.04885968 0.003483413 0.009865867 -0.12510598 0.11550892 -0.10083745 -0.006746152 -0.11450396
0.07677456 0.011867614 -0.036889177 -0.078434885 0.17834263 0.0051395353 -0.029983675 -0.10279298
0.042492844 -0.00042046598 0.044967864 -0.025963498 0.18492012 0.09811913 0.0010927665 -0.0067205536
-0.006148488 0.027184522 -0.008578461 -0.040181518 -0.10934373 0.1691049 -0.015470668 0.022361893
-3.259938e-05 -0.006531407 -0.007881217 -0.06404976 0.088318296 0.0935856 -0.004856985 0.0048789643
0.050916474 -0.021880275 -0.0038134863 -0.00672079 0.21126686 -0.00080446986 -0.002833465 0.004219743
0.012126357 0.10690785 -0.017525814 -0.02637694 -0.10457104 0.093051545 -0.00068007427 0.017887242
-0.040463246 0.07883435 0.006117712 0.028602837 0.050365783 0.027354216 -0.033998743 0.0038712344
-0.028818673 0.06703971 0.0318378 -0.000530207 0.16566153 -0.07604653 -0.013470982 -0.0001340673
-0.021072589 -0.04154831 -0.026488427 -0.009902269 0.07704895 0.08728916 -0.024675615 -0.024159724
-0.089382716 -0.08047602 0.0052124336 -0.05577349 -0.085931234 0.1106623 -0.0046125585 -0.030547542
-0.02703166 -0.0068441248 0.025315605 0.023275845 -0.21167743 0.041905604 -0.018174082 -0.027382575
-0.026050935 0.12711035 0.023832843 0.049477324 -0.03604646 -0.093358554 -0.03699827 0.048749506
0.024080414 0.1805001 0.012173217 0.08844096 -0.053537026 -0.1836503 -0.011103891 0.08903869
00000000: ae0f 62bd 3c4e 703d 9cbe deba 6d01 21bc
00000010: 3857 d0bd 876d a33d f25c 6dbb 18a3 ad3c
00000020: fcd8 56bd 964f 203d 335b 81bc a044 263d
00000030: 0fcc aa3c 3a68 c1bd c127 0c3c fe2f b83b
00000040: ee76 87bd 8a0d 943d a321 de3b 5291 293d
00000050: fec2 4c3e 6d57 5abe 6a18 94bc fb0e 4d3c
00000060: 65e1 6f3d 10f3 cf3d 9b5c a8bc 12c9 1bbd
00000070: 6ea3 083b e732 8c3d eb55 633c 3331 d7bd
00000080: 6ebd 4a3c dd5c ae3d c317 a8bd dc8e e2bc
00000090: 9dd4 b5bd 5e67 91bb 4ad5 7fbd 7bc8 a3bd
000000a0: f8f8 653d b148 043d 8153 00bd cdb0 dfbd
000000b0: 8900 56be 21d3 1ebd 29b3 f43c 7f29 4cbd
000000c0: 37f1 383d 5f31 b4bc 2484 ab3c 8e21 b8bb
000000d0: 9ed0 0f3e 8b62 9b3d 2a52 b5bc 5833 4dbd
000000e0: a985 163d 4e06 363d cf0f 4a3c cb53 173c
000000f0: 4040 163e 794e 093e c0cc ba3c 5dec 8a3c
00000100: aff1 3d39 dfe2 483d ad25 373d ae65 a6bc
00000110: aaad 453e 570e e43d 236c 843b 6e4c 9b3c
00000120: f980 a63d 0b86 833d 4b9e b43c 53c8 00bd
00000130: 7fba 7b3d 1ac8 dcbb c235 7dbd c363 8abc
00000140: 6265 ce3d 54b2 0f3c 8bac 4c3c bf0a 7bbd
00000150: 78eb c43d d1ca fabc 4bfe 59bd b204 72bd
00000160: e1ec e93c e0ec 633d ec30 cebc 011a 733d
00000170: e2da 0d3e 85f2 16be 5007 9f3b 3365 f63d
00000180: fd00 d4bc e98d 39bc 209f ce3c 84bc bc3c
00000190: befc 073c 34ac 603e 9ef1 66bc 55f3 a13d
000001a0: 5a5d ddbc ada5 a8bd 26b3 813c fd16 0e3d
000001b0: fe78 9a3d 449b 37bd 3726 32bc d59c 18bd
000001c0: e01a 8dbd d55b 7abb fe29 953b 3ac1 4a3b
000001d0: a931 ca3d ac5c a3be 160d 38bc 1297 35bc
000001e0: a019 77bc eb87 b3bd c855 393c d3b5 1b3d
000001f0: fc08 523e 2e9d 2e3d f3df c4bc 0b10 dbba
00000200: 440d 1dbc 9eda 51bd 093a 4dbb 5726 84bc
00000210: 3fdd 033e 3280 903d 539c 9dbc 5a8b bc3b
00000220: 87d7 d9bd be23 9fbd 1919 64bc 16ea 1abb
00000230: 568c 893c 72c9 443c f17b c2bb 348c ea3a
00000240: 1621 483d f949 643b 72a4 213c c81b 00be
00000250: f18f ec3d dd83 cebd d30e ddbb 0d81 eabd
00000260: fb3b 9d3d 6270 423c 1b19 17bd 78a2 a0bd
00000270: 739f 363e 8c69 a83b 53a0 f5bc 2085 d2bd
00000280: fa0c 2e3d fd71 dcb9 3930 383d 67b1 d4bc
00000290: b35b 3d3e aff2 c83d 293b 8f3a 1738 dcbb
000002a0: 4179 c9bb 13b2 de3c ac8c 0cbc 6095 24bd
000002b0: 9bef dfbd d629 2d3e af78 7dbc 4a30 b73c
000002c0: 51bb 08b8 6a05 d6bb 3820 01bc 852c 83bd
000002d0: 39e0 b43d cfa9 bf3d 5827 9fbb b8df 9f3b
000002e0: cb8d 503d 433e b3bc afeb 79bb 133a dcbb
000002f0: 5756 583e 0fe3 52ba a8b1 39bb c545 8a3b
00000300: a1ad 463c 81f2 da3d 4c92 8fbc 7414 d8bc
00000310: 5729 d6bd cf91 be3d 0347 32ba 4488 923c
00000320: cabc 25bd e773 a13d 1677 c83b 7f50 ea3c
00000330: 5a4c 4e3d f315 e03c 4442 0bbd 89b4 7d3b
00000340: 2315 ecbc 1e4c 893d 5a68 023d 97fd 0aba
00000350: 2da3 293e 48be 9bbd 65b5 5cbc 6b94 0cb9
00000360: 6ca0 acbc 902e 2abd 42fe d8bc 203d 22bc
00000370: d7cb 9d3d a9c4 b23d 8424 cabc 9dea c5bc
00000380: 490e b7bd 9dd0 a4bd 10cd aa3b be72 64bd
00000390: b7fc afbd eaa2 e23d f224 97bb d73e fabc
000003a0: 8071 ddbc ae44 e0bb ac62 cf3c fcac be3c
000003b0: f8c1 58be 36a5 2b3d d0e1 94bc 6c51 e0bc
000003c0: c568 d5bc 3729 023e 183d c33c bca8 4a3d
000003d0: 74a5 13bd c532 bfbd 7f8b 17bd 90ad 473d
000003e0: 4a44 c53c 05d5 383e 2c72 473c 8920 b53d
000003f0: a449 5bbd d30e 3cbe 18ed 35bc eb59 b63d

fc1.bias f4 [512]
0.016129745 0.0392157 -0.028191615 -0.22220884 -0.04035288 0.11414899 -0.15335827 0.1249309
-0.043015275 0.02122166 -0.18842149 0.035812896 0.18857628 0.07881815 -0.19466643 -0.062126447
-0.088404454 -0.00914361 -0.09398112 0.100591406 0.16478059 -0.029138658 0.11935468 -0.1320686
0.11995944 0.035407435 0.070042744 -0.06203361 -0.04881588 -0.22642921 -0.20028992 0.11192879
0.13473484 0.224494 0.10466549 -0.14574176 -0.15725261 -0.060429282 -0.21978192 -0.0017959683
-0.010955331 -0.014824634 0.065174125 -0.016690832 -0.14036858 0.04894515 0.013458857 -0.2111959
0.31310385 0.14083445 -0.15729648 -0.09197176 0.10198489 0.06360227 -0.1688549 0.07709375
0.06142414 -0.0038142279 0.08118216 0.06643545 0.044385128 -0.0420489 -0.02101006 0.056778386
0.15475307 -0.1294538 -0.17091398 -0.031018723 -0.106011055 0.052341226 0.21263294 -0.13238323
0.016745312 0.07994872 0.18304262 0.23782976 -0.083036155 0.0071791993 -0.12832616 -0.080293074
-0.02145048 0.19409499 0.21141945 -0.057927966 0.16488877 -0.24922755 -0.170394 -0.06383642
0.19062522 0.15543394 -0.22511692 -0.095702715 0.12816927 0.08175498 0.04044217 -0.13853583
0.036923446 0.20606315 0.20662594 0.10509345 -0.13857295 -0.25565282 0.19133595 -0.04757481
0.12560655 0.085925564 0.0025037983 -0.21231285 0.22412933 -0.10324779 -0.16151202 -0.011402976
0.006789823 -0.14966224 -0.23627555 -0.08444901 -0.17217185 0.011342249 -0.265586 -0.02503095
-0.19688629 0.008176097 -0.09917273 -0.04133355 -0.0971392 0.10217199 -0.20066546 0.1657144
0.15612927 0.023031559 -0.06941103 -0.09386408 -0.043608334 -0.16756527 0.07110404 0.15060481
-0.15735629 -0.1134965 0.0003397633 -0.29045042 -0.0719027 -0.1323164 -0.2010814 -0.1484363
0.16570437 -0.015725883 0.0059759333 0.11970195 0.07561726 -0.031579703 0.057109956 -0.027001934
0.09759468 -0.018700179 0.08136291 -0.20898117 -0.09691301 0.08097107 0.03165876 0.08068067
-0.09801421 0.038607735 -0.12160338 -0.17364657 -0.132407 0.01269485 -0.1516066 0.14841262
0.068821765 -0.034486584 0.099477775 0.024757706 0.006640968 0.15233448 -0.034677267 -0.02188946
0.24482054 -0.11868663 0.11003015 -0.010309877 -0.11533916 -0.0103800325 0.077612355 -0.13859995
-0.121794164 0.023800282 0.21752912 0.10164544 0.040613312 0.028253619 0.059265412 0.16577788
0.010822055 0.069899194 -0.13790771 0.0063861525 -0.18125194 -0.22507103 -0.06917895 -0.23872244
0.029557666 0.15843181 0.041978206 -0.20556256 0.105672136 0.12693286 -0.040032234 -0.19096664
-0.0110487165 0.21158406 -0.10864835 -0.15314712 0.0627738 0.11386173 -0.0014545647 0.1719589
-0.19454086 0.1065251 -0.14869256 -0.13961358 0.17452554 -0.09802855 -0.16369359 0.054759193
0.14460197 -0.09448004 -0.26562494 -0.027686423 0.16758193 -0.08114022 -0.0671588 0.05736954
0.117743805 -0.22330391 -0.13055925 0.008667509 0.06727398 0.09802526 0.07151506 0.0810445
0.20636572 -0.20269823 0.08285581 -0.0076069697 -0.12369205 -0.06577742 -0.083145894 -0.31851974
-0.09083378 0.13438196 -0.19656722 -0.05294628 -0.09073001 -0.19619362 0.058832582 -0.2208379
00000000: 8722 843c a4a0 203d 1af2 e6bc b78a 63be
00000010: 1049 25bd f2c6 e93d f309 1dbe c6db ff3d
00000020: c930 30bd 0cd9 ad3c 90f1 40be 8bb0 123d
00000030: 241a 413e 696b a13d a356 47be 4d78 7ebd
00000040: 650d b5bd 14cf 15bc 2c79 c0bd de02 ce3d
00000050: 3ebc 283e 32b4 eebc 3a70 f43d fe3c 07be
00000060: 4bad f53d 6307 113d 9272 8f3d f416 7ebd
00000070: 29f3 47bd 0fdd 67be cd18 4dbe ec3a e53d
00000080: eef7 093e c1e1 653e dc5a d63d 543d 15be
00000090: d406 21be b284 77bd 830e 61be b266 ebba
000000a0: fd7d 33bc 06e3 72bc 037a 853d 36bb 88bc
000000b0: c8bc 0fbe b67a 483d 8a82 5c3c bd43 58be
000000c0: 264f a03e e836 103e 5412 21be b15b bcbd
000000d0: 74dd d03d e841 823d 4de8 2cbe 54e3 9d3d
000000e0: e197 7b3d 20f8 79bb d542 a63d 4f0f 883d
000000f0: 2ecd 353d 783b 2cbd 4a1d acbc 7490 683d
00000100: 9777 1e3e 898f 04be 1304 2fbe fa1a febc
00000110: 531c d9bd c163 563d 73bc 593e 788f 07be
00000120: 772d 893c 28bc a33d 866f 3b3e a589 733e
00000130: dc0e aabd 7d3f eb3b ef67 03be b270 a4bd
00000140: ebb8 afbc d6c0 463e 577e 583e e045 6dbd
00000150: 9ad8 283e 8235 7fbe c47b 2ebe abbc 82bd
00000160: 4233 433e 132a 1f3e 0d85 66be c9ff c3bd
00000170: ce3e 033e 286f a73d b0a6 253d 56dc 0dbe
00000180: 0a3d 173d 3802 533e c095 533e 3c3b d73d
00000190: 11e6 0dbe ede4 82be 92ed 433e cedd 42bd
000001a0: 019f 003e bef9 af3d c416 243b 8a68 59be
000001b0: 2982 653e 9473 d3bd 6863 25be 8cd3 3abc
000001c0: 2a7d de3b 0f41 19be 38f2 71be 9af3 acbd
000001d0: d14d 30be d7d4 393c e3fa 87be b50d cdbc
000001e0: 8f9c 49be 09f5 053c 131b cbbd 5e4d 29bd
000001f0: ebf0 c6bd 8c3f d13d 3f7b 4dbe 09b1 293e
00000200: 5ae0 1f3e aeac bc3c 5f27 8ebd d03b c0bd
00000210: a79e 32bd 3b96 2bbe ff9e 913d 2638 1a3e
00000220: 0222 21be da70 e8bd 4222 b239 ebb5 94be
00000230: b941 93bd f37d 07be 48e8 4dbe afff 17be
00000240: 68ae 293e 91d3 80bc c3d1 c33b 4c26 f53d
00000250: 39dd 9a3d b859 01bd 21ec 693d 2933 ddbc
00000260: b8df c73d 1e31 99bc 99a1 a63d 29ff 55be
00000270: 547a c6bd 29d4 a53d 9eac 013d e83b a53d
00000280: adbb c8bd 2523 1e3d 310b f9bd 68d0 31be
00000290: b395 07be 0ffe 4f3c c33e 1bbe 7af9 173e
000002a0: 6df2 8c3d ce41 0dbd 01bb cb3d acd0 ca3c
000002b0: 7a9c d93b 92fd 1b3e c009 0ebd 8651 b3bc
000002c0: 3cb2 7a3e fa11 f3bd 7d57 e13d c2ea 28bc
000002d0: f036 ecbd 0311 2abc 3af3 9e3d 25ed 0dbe
000002e0: 386f f9bd cff8 c23c f4bf 5e3e 7c2b d03d
000002f0: 255a 263d 2274 e73c 4ac0 723d adc1 293e
00000300: fd4e 313c 4f27 8f3d ae37 0dbe ee42 d13b
00000310: 1c9a 39be 0579 66be b1ad 8dbd a873 74be
00000320: eb22 f23c f33b 223e 57f1 2b3d fe7e 52be
00000330: a26a d83d b0fa 013e d7f8 23bd c28c 43be
00000340: ad05 35bc 7ea9 583e 0783 debd 99d2 1cbe
00000350: 8d8f 803d 5730 e93d 18a7 beba fe15 303e
00000360: b835 47be d529 da3d dd42 18be ddf6 0ebe
00000370: d3b6 323e 31c3 c8bd 4b9f 27be 2d4b 603d
00000380: 8a12 143e c07e c1bd feff 87be a3ce e2bc
00000390: 999a 2b3e d82c a6bd 8e8a 89bd 53fc 6a3d
000003a0: aa23 f13d c8a9 64be 53b1 05be 2b02 0e3c
000003b0: f1c6 893d 78c1 c83d 7d76 923d a9fa a53d
000003c0: 8951 533e 2090 4fbe 4fb0 a93d e343 f9bb
000003d0: 4252 fdbd 50b6 86bd 6548 aabd 0515 a3be
000003e0: 1007 babd 6d9b 093e eb48 49be 33de 58bd
000003f0: a8d0 b9bd fbe6 48be 6ffa 703d 5523 62be

fc2.weight f4 [256, 512]
0.12059742 -0.03645016 -0.018349014 -0.034289017 -0.06322762 0.070672296 0.11605413 -0.037277628
-0.07710669 -0.01614568 -0.030572467 0.019310875 0.010834148 0.0027274082 0.09047698 -0.14373697
-0.15996066 0.041988797 0.054911256 0.21373455 -0.032770656 0.032607093 0.038552973 -0.19442967
0.03855344 0.04649379 -0.053452507 0.006313246 0.077338226 0.08448895 -0.0391587 -0.12981477
-0.04652344 0.06338588 0.059489775 -0.0055760806 0.11384089 0.013866265 0.027561205 -0.045973334
0.018593324 0.08458334 0.04189352 0.14714788 -0.06859044 0.10458185 -0.1271769 0.17969309
0.008337621 0.07930668 0.12747222 -0.009462847 -0.05285632 0.053316783 0.08398825 0.03233966
0.2208665 -0.0045785513 -0.013447206 0.23859352 -0.12750134 -0.008214222 -0.013593328 -0.036071286
0.0805291 -0.019239165 0.09691045 0.022853881 0.1566769 -0.1435721 0.090363055 0.0054408116
0.07544951 -0.0779302 0.10889509 -0.014357219 -0.022468103 -0.07838409 -0.013758696 -0.039854404
-0.035958063 -0.077485 0.04786891 -0.047447942 0.022071963 0.1487904 0.049569674 0.1082169
-0.05045673 0.0075844014 -0.098965645 -0.039056268 0.08758536 0.0036945585 0.005336815 0.00657168
0.052579828 0.09601045 -0.05531031 0.027471403 0.030913059 0.03449692 -0.015143202 0.09221146
0.009889445 -0.039394066 -0.053342715 0.009798218 0.019304868 0.00954903 -0.066773236 0.030411217
-0.10249658 -0.039315023 -0.031631775 -0.081610106 0.043350384 -0.04741392 0.028339654 0.08127586
-0.015792904 -0.039697565 0.037249602 0.020664597 0.048026156 -0.0019407121 0.059260968 -0.015577005
-0.005069129 -0.08669806 -0.09232613 0.059766915 0.0036716887 -0.11100361 0.017040702 -0.19651279
-0.12208055 0.06922108 -0.18695898 0.08832509 0.0712594 -0.072428316 0.013016306 -0.038662888
0.15188116 -0.053569313 0.039783955 0.057051 -0.2260633 -0.099896826 0.11086052 -0.1255666
0.020518119 -0.04096106 0.11302434 -0.06495701 0.01107232 -0.0028792955 0.18787795 0.001996936
-0.0108822 -0.0042482913 -0.11655326 0.1384997 -0.11537006 -0.0028042446 0.10820905 -0.11253148
0.05101534 0.016093887 0.013723617 0.010688579 -0.10706255 0.11946091 -0.011507852 0.055853646
-0.11472647 -0.049353812 -0.06675859 -0.046115972 -0.03962247 0.11403286 -0.0005233025 0.21508402
-0.030943774 0.041961193 0.04360559 0.1488807 0.04601548 0.048344553 -0.14598058 -0.12707324
0.035369147 0.1483799 -0.054266833 0.015372226 0.07031776 -0.12944971 0.051217068 -0.06448651
0.08182409 -0.01789132 0.09317566 0.015309548 -0.117154956 0.021352304 0.13235925 -0.06662193
0.072569504 0.025065413 0.081062734 0.073249154 -0.022007514 0.08523578 0.036369357 -0.0055256975
-0.037977364 0.15657635 0.12880276 0.07455707 0.064268336 0.13177717 0.010440608 -0.0014804099
0.09579668 0.049633093 -0.03625919 -0.05252139 -0.15214257 0.0757357 0.024924416 0.03040449
-0.008351619 -0.008655026 -0.07794559 0.0029835233 0.13207963 0.15064745 -0.146025 0.13387865
-0.05548515 0.06215815 -0.03580296 -0.08586057 0.07217281 -0.07532185 0.2131574 -0.014236073
-0.003585952 0.05664566 -0.12708566 -0.05001109 -0.06802603 -0.08506398 0.02448798 -0.07873709
00000000: c8fb f63d c34c 15bd ac50 96bc a472 0cbd
00000010: 7c7d 81bd a3bc 903d caad ed3d 6db0 18bd
00000020: 1dea 9dbd f243 84bc 1c73 fabc d731 9e3c
00000030: b681 313c 51be 323b ff4b b93d c92f 13be
00000040: bacc 23be 72fc 2b3d a0ea 603d 3bdd 5a3e
00000050: 863a 06bd 048f 053d b9e9 1d3d 9218 47be
00000060: 36ea 1d3d 4670 3e3d 04f1 5abd 59df ce3b
00000070: 8163 9e3d 8b08 ad3d df64 20bd 2aee 04be
00000080: 5d8f 3ebd 75d0 813d 8dab 733d 8eb7 b6bb
00000090: 6a25 e93d 552f 633c 09c8 e13c 894e 3cbd
000000a0: 0751 983c 083a ad3d 8a98 2b3d efad 163e
000000b0: 2579 8cbd 022f d63d a93a 02be 7701 383e
000000c0: 849a 083c 8a6b a23d 1488 023e 0f0a 1bbc
000000d0: de7f 58bd b362 5a3d 0802 ac3d 9776 043d
000000e0: d42a 623e ac07 96bb ab51 5cbc dc51 743e
000000f0: b68f 02be f294 06bc 8db6 5ebc 7cbf 13bd
00000100: 71ec a43d 749b 9dbc fc78 c63d 1038 bb3c
00000110: e96f 203e 9104 13be 4410 b93d d648 b23b
00000120: 4685 9a3d de99 9fbd 6404 df3d 8b3a 6bbc
00000130: 070f b8bc d687 a0bd 276c 61bc 5f3e 23bd
00000140: c348 13bd 75b0 9ebd 3112 443d c658 42bd
00000150: 43d0 b43c 835c 183e 9209 4b3d d2a0 dd3d
00000160: b7ab 4ebd 9286 f83b 80ae cabd 77f9 1fbd
00000170: f45f b33d 6820 723b 73e0 ae3b 3f57 d73b
00000180: f25d 573d 20a1 c43d 108d 62bd b50b e13c
00000190: 623d fd3c a44c 0d3d 311b 78bc 5dd9 bc3d
000001a0: 5707 223c ac5b 21bd e47d 5abd b488 203c
000001b0: 3e25 9e3c 8973 1c3c 68c0 88bd f220 f93c
000001c0: bae9 d1bd ca08 21bd 5290 01bd 3323 a7bd
000001d0: 2c90 313d 1935 42bd 9028 e83c f573 a63d
000001e0: 1f60 81bc ea99 22bd 0a93 183d cd48 a93c
000001f0: 13b7 443d 7e5f feba a1bb 723d b236 7fbc
00000200: f01a a6bb c18e b1bd 7b15 bdbd 27ce 743d
00000210: b7a0 703b dc55 e3bd f198 8b3c a63a 49be
00000220: 5e05 fabd c8c3 8d3d 2d72 3fbe c9e3 b43d
00000230: 73f0 913d 4c55 94bd 5842 553c fa5c 1ebd
00000240: bc86 1b3e 7f6b 5bbd 80f4 223d 4fae 693d
00000250: 237d 67be b596 ccbd d70a e33d 8894 00be
00000260: 9d15 a83c c9c6 27bd 4e79 e73d 2e08 85bd
00000270: ad68 353c 90b2 3cbb 1463 403e 07df 023b
00000280: 414b 32bc 4035 8bbb 7ab3 eebd ded2 0d3e
00000290: 2347 ecbd 6bc7 37bb b59c dd3d e876 e6bd
000002a0: 76f5 503d 54d7 833c 06d9 603c 261f 2f3c
000002b0: 9c43 dbbd eca7 f43d 6e8b 3cbc cbc6 643d
000002c0: b6f5 eabd 3927 4abd bab8 88bd 1ae4 3cbd
000002d0: 2c4b 22bd 0f8a e93d 3c2e 09ba fc3e 5c3e
000002e0: cc7d fdbc 80df 2b3d c69b 323d 2f74 183e
000002f0: ba7a 3c3d f004 463d ef7b 15be 7d1f 02be
00000300: 3ddf 103d e7f0 173e e646 5ebd cadb 7b3c
00000310: c202 903d 778e 04be fdc8 513d 8111 84bd
00000320: 6393 a73d d190 92bc e1d2 be3d e6d4 7a3c
00000330: f0ee efbd 07eb ae3c 2f89 073e 1471 88bd
00000340: 529f 943d fb55 cd3c 3804 a63d a703 963d
00000350: 1a49 b4bc 1990 ae3d 09f8 143d e910 b5bb
00000360: 278e 1bbd 8d55 203e dfe4 033e 61b1 983d
00000370: 1e9f 833d 98f0 063e 150f 2b3c 500a c2ba
00000380: 0d31 c43d 124c 4b3d 8484 14bd ab20 57bd
00000390: 43cb 1bbe 521b 9b3d 4a2e cc3c d612 f93c
000003a0: 3bd5 08bc cfcd 0dbc f0a1 9fbd 3787 433b
000003b0: e23f 073e 5343 1a3e 9487 15be 7c17 093e
000003c0: 6644 63bd 8b99 7e3d 20a6 12bd abd7 afbd
000003d0: 57cf 933d 5842 9abd ef45 5a3e 6b3e 69bc
000003e0: 4b02 6bbb 4805 683d be22 02be 6ed8 4cbd
000003f0: 3b51 8bbd 0636 aebd 049b c83c e940 a1bd

fc2.bias f4 [256]
0.051513985 0.012377588 -0.039425284 -0.03222465 0.04170047 -0.08443614 -0.06452993 -0.057443842
0.015206949 0.09792183 -0.090801 0.039828774 0.07699944 0.028576266 0.123948306 -0.027388524
-0.049984932 -0.11506761 0.031098632 -0.079952136 -0.009042029 0.001189473 0.0086676 0.031977903
-0.05206307 0.0001722905 0.023802387 0.001144643 -0.048840173 0.017370662 -0.06181493 -0.054199524
-0.019086113 -0.0064304774 0.0009673945 0.034879666 0.027780907 0.043561492 0.054635253 -0.011699491
-0.0044095367 -0.07099847 -0.080966696 -0.057418548 0.021702008 0.073443025 0.036535107 0.038612038
-0.047679584 -0.035886433 0.008457595 0.008086582 -0.010356089 -0.0025157265 0.06992164 -0.08622599
-0.018355692 -0.050375402 0.037766382 -0.025489276 0.007728677 0.011524581 -0.05749253 -0.0058056237
0.049803924 -0.04823817 0.07151796 0.012930588 -0.028454127 -0.009674064 -0.014963887 -0.053145494
0.031242363 -0.090264656 -0.0035460773 -0.011845861 -0.01013641 0.008662174 0.010286967 -0.06004459
-0.05356182 -0.055498965 -0.012683378 -0.0066723134 0.008106001 0.044982366 0.05223394 0.050889477
0.029841155 0.011564383 -0.024392623 -0.04066309 0.023194984 -0.05043253 0.032051295 0.0006267614
0.07139467 -0.047295753 -0.026932277 -0.054371115 0.091500476 -0.04140646 -0.0066760536 -0.17896776
0.035056654 0.025171287 0.043818645 -0.028195629 -0.024924718 -0.0397981 0.060886193 0.074251816
-0.07162043 0.019296626 0.027910262 -0.030294826 0.024083233 -0.14369935 -0.043802768 -0.058366884
0.006583672 -0.019390896 -0.03282376 0.0038215793 0.05148165 -0.04875764 -0.10877667 0.030834658
0.033865973 0.0049328 0.019502155 0.061910372 -0.1455186 -0.02553724 -0.0492115 0.05699393
0.040681835 -0.021713516 -0.021297997 -0.062370274 -0.017403886 0.046624124 0.028938618 -0.046334706
0.006358825 -0.09777045 -0.06860045 0.021861842 -0.013854834 -0.032162335 -0.05661144 -0.0543632
-0.0903313 0.021563645 -0.054744963 0.017487945 -0.1400568 0.010820532 0.06532555 -0.04843227
-0.05685579 -0.10778938 0.07850913 0.06699352 0.007999843 -0.026006632 -0.01836882 -0.03454516
-0.03788635 -0.04541764 0.00028128174 -0.07809356 -0.08426091 0.032708466 -0.053779732 0.02725284
-0.09385451 -0.12851775 -0.020855423 -0.04139564 -0.11310528 0.022885557 0.05985634 -0.030179873
-0.04228713 0.08241336 0.045075726 -0.08559066 -0.0011789796 -0.02692189 0.091591045 -0.019977894
0.04492474 0.025954857 0.042717014 -0.0027212256 0.07297638 0.05319631 0.002572336 0.059839822
-0.04990976 0.048605204 0.053444907 -0.036033776 0.08086044 -0.07487395 -0.08507308 0.026219707
-0.07091333 0.06048163 -0.09741226 -0.064115964 0.024771634 0.037122883 -0.026514634 -0.0081363
-0.02065174 -0.05541835 -0.09490731 0.047004204 -0.002594184 0.044572774 -0.022628894 0.00672239
-0.09156821 0.056758013 -0.035003573 -0.080642425 0.019371703 -0.040406536 -0.029852387 -0.02656837
-0.07960348 -0.09324199 0.042432245 -0.020219134 -0.030291865 0.005649036 -0.02905737 0.058014575
0.043460466 -0.04373937 0.0645194 0.013000386 0.08075313 0.0052451487 0.046346594 -0.052822888
-0.06392427 -0.02996696 -0.02219014 -0.13104 -0.07902348 0.0067435186 -0.15240633 0.031620603
00000000: 5400 533d 5ecb 4a3c 687c 21bd fffd 03bd
00000010: 1dce 2a3d dbec acbd 4528 84bd 3c4a 6bbd
00000020: 9126 793c 3e8b c83d e0f5 b9bd 7f23 233d
00000030: e2b1 9d3d c618 ea3c 9cd8 fd3d e65d e0bc
00000040: 00bd 4cbd 91a8 ebbd 8fc2 fe3c f2bd a3bd
00000050: 0525 14bc 17e8 9b3a 8d02 0e3c 43fb 023d
00000060: 1640 55bd e1a8 3439 39fd c23c d907 963a
00000070: a20c 48bd eb4c 8e3c a731 7dbd 5200 5ebd
00000080: 7b5a 9cbc c1b6 d2bb bf98 7d3a fbdd 0e3d
00000090: c994 e33c 896d 323d 37c9 5f3d 39af 3fbc
000000a0: e07d 90bb a567 91bd ded1 a5bd b62f 6bbd
000000b0: 69c8 b13c 4c69 963d d6a5 153d a827 1e3d
000000c0: ab4b 43bd a7fd 12bd b991 0a3c 957d 043c
000000d0: 96ac 29bc e3de 24bb 1433 8f3d 4097 b0bd
000000e0: ad5e 96bc 7056 4ebd ecb0 1a3d e3ce d0bc
000000f0: d740 fd3b 99d1 3c3c 4a7d 6bbd 1a3d bebb
00000100: 33ff 4b3d 6395 45bd 0278 923d d1da 533c
00000110: a118 e9bc f77f 1ebc 172b 75bc 17af 59bd
00000120: fcef ff3c addc b8bd 4e65 68bb 2415 42bc
00000130: 2f13 26bc cbeb 0d3c ab8a 283c 51f1 75bd
00000140: a463 5bbd e252 63bd f1cd 4fbc 6ca3 dabb
00000150: 08cf 043c 6e3f 383d 42f3 553d 7c71 503d
00000160: 7075 f43c 8a78 3d3c 0ad3 c7bc 578e 26bd
00000170: 6803 be3c 5792 4ebd 3848 033d 3f4d 243a
00000180: 5e37 923d 31b9 41bd 14a1 dcbc 3fb4 5ebd
00000190: 9a64 bb3d d299 29bd ccc2 dabb 5343 37be
000001a0: 9197 0f3d 0434 ce3c 2e7b 333d 85fa e6bc
000001b0: ec2e ccbc 5503 23bd cd63 793d 5611 983d
000001c0: bbad 92bd f513 9e3c 10a4 e43c db2c f8bc
000001d0: 334a c53c ec25 13be 886a 33bd 1d12 6fbd
000001e0: d8bb d73b a8d9 9ebc 3572 06bd 7673 7a3b
000001f0: 6cde 523d 17b6 47bd 4ec6 debd f798 fc3c
00000200: 0cb7 0a3d 53a3 a13b fcc2 9f3c bb95 7d3d
00000210: d402 15be 7933 d1bc ff91 49bd 7872 693d
00000220: ffa1 263d 8be0 b1bc 2379 aebc f977 7fbd
00000230: 9892 8ebc f0f8 3e3d ae10 ed3c 76c9 3dbd
00000240: b15d d03b e03b c8bd 657e 8cbd 9b17 b33c
00000250: 63ff 62bc a7bc 03bd 66e1 67bd f2ab 5ebd
00000260: 9eff b8bd 3ea6 b03c 413c 60bd e142 8f3c
00000270: 0d6b 0fbe 9a48 313c 67c9 853d ea60 46bd
00000280: 9ee1 68bd aec0 dcbd 65c9 a03d e633 893d
00000290: c611 033c dc0b d5bc 357a 96bc 3a7f 0dbd
000002a0: b82e 1bbd d907 3abd ff78 9339 84ef 9fbd
000002b0: fc90 acbd 50f9 053d 2348 5cbd 5941 df3c
000002c0: cb36 c0bd 289a 03be fed8 aabc 798e 29bd
000002d0: bea3 e7bd 7e7a bb3c ec2b 753d c83b f7bc
000002e0: 4535 2dbd 56c8 a83d 53a1 383d 284a afbd
000002f0: fe87 9aba 4c8b dcbc 1694 bb3d aea8 a3bc
00000300: 0103 383d 489f d43c 09f8 2e3d 9756 32bb
00000310: a474 953d 60e4 593d a394 283b 9a1a 753d
00000320: 2d6e 4cbd 4016 473d 0ce9 5a3d 2798 13bd
00000330: 299a a53d 8357 99bd cc3a aebd b6ca d63c
00000340: 023b 91bd 96bb 773d 1480 c7bd 3b4f 83bd
00000350: e2ed ca3c 2a0e 183d 3835 d9bc 1e4e 05bc
00000360: d62d a9bc 5afe 62bd c45e c2bd 7b87 403d
00000370: 2f03 2abb f191 363d 3b60 b9bc 7f47 dc3b
00000380: 1d88 bbbd 177b 683d e85f 0fbd db27 a5bd
00000390: 68b1 9e3c 5381 25bd fe8c f4bc e9a5 d9bc
000003a0: 2607 a3bd a8f5 bebd 6fcd 2d3d 99a2 a5bc
000003b0: a526 f8bc 8c1b b93b b909 eebc b1a0 6d3d
000003c0: 9a03 323d 0e28 33bd bf22 843d 92ff 543c
000003d0: e661 a53d 7fdf ab3b edd5 3d3d d05c 58bd
000003e0: baea 82bd 457d f5bc 19c8 b5bc 5a2f 06be
000003f0: 10d7 a1bd bcf8 dc3b 6810 1cbe 9b84 013d

fc3.weight f4 [2, 256]
0.009106112 -0.10726662 0.18665147 -0.007867282 -0.011747166 -0.343543 0.14105763 0.12375198
0.15240972 -0.037502192 -0.61974365 -0.0052105812 -0.045814715 -0.13046415 -0.032643467 -0.055673152
-0.20048992 -0.5115482 0.1097607 0.23347746 -0.8662667 0.0014158749 -0.14251322 -0.012773577
0.03014665 0.08455805 -0.08582793 -0.051129315 0.082800105 -0.09527516 -0.4262077 0.14590105
0.10017414 0.016715907 -0.0081215715 -0.05700663 -0.23118797 -0.2908534 -0.3758985 -0.08220409
0.24329992 0.09305188 -0.19321081 -0.0029472867 0.0473936 -0.12745269 -0.044751715 0.14155756
0.08444874 0.21784838 0.029020559 0.009760046 0.15346852 -0.13474126 0.08115914 0.008737502
-0.65828633 0.043411616 -0.030023407 0.07522995 -0.48574144 -0.008634903 0.009492556 -0.0046023508
-0.022825178 -0.47143042 -0.032314293 -0.19908522 0.0932593 -0.06680039 0.08514033 -0.42906648
-0.007857575 0.031438716 0.00730128 0.2542362 -0.08878785 0.0068028844 0.0049329842 0.07881409
0.01454132 0.109326616 0.03606112 -0.006842402 -0.029398883 0.16473277 0.036293544 0.1804597
-0.2322469 0.34144196 0.004529896 0.122820735 -0.10544844 -0.026531221 -0.008538635 -0.19416113
0.24754128 -0.19033355 -0.02060512 0.090230756 -0.019568766 0.17352788 0.026100181 -0.10852683
-0.11593795 -0.7392513 0.03240839 -0.0076906513 0.29809362 0.015645826 0.0010141104 -0.33322635
0.028619649 0.19120355 0.07650296 0.016148191 -0.024548499 -0.19813712 0.16952288 0.28786236
0.0036669676 0.045066025 -0.08025763 0.21777117 0.10130602 -0.13300432 -0.7802357 0.13561611
0.036405314 -0.089703865 0.10893817 0.18658988 -0.74238914 0.19244337 0.14264785 -0.04047481
-0.014499244 0.099265456 0.2435345 0.026429528 -0.12022152 -0.014686992 0.06391253 -0.01121615
-0.007621982 -0.6638755 -0.24613859 -0.05195442 0.27224833 0.22952329 0.102013774 0.070679955
-0.12968017 -0.02120368 0.16346112 0.006525776 -0.43229228 -0.090378724 -0.10876657 0.2168245
0.095732436 -0.50755733 -0.06503278 -0.009051802 0.2678415 -0.22981405 -0.053318918 0.16021435
-0.09787771 0.10668061 0.055057205 -0.7555563 0.23879592 -0.0813503 0.19136024 -0.00013748655
0.0028512063 -0.056718744 -0.08426563 -0.42132863 -0.5364288 0.018296236 -0.0017808892 -0.029912498
-0.15372957 -0.001727164 0.10164404 -0.40861502 0.17884192 0.103008695 -0.056878515 -0.12081932
-0.10140832 0.37900853 -0.31789386 -0.0011496356 0.29247424 0.2173991 0.06074524 -0.017817503
0.06850847 -0.024446335 -0.015771186 0.24719088 -0.062373493 -0.09160186 -0.11614901 0.06272069
0.18730418 -0.013625785 -0.22913073 -0.20513569 -0.0020993527 0.029885942 -0.5510432 -0.060822867
-0.26813382 0.07014561 -0.12187802 -0.13696846 0.23735173 0.121286325 0.21868576 0.20308508
-0.5778184 -0.007910543 -0.027989803 0.1480147 0.1323234 -0.048867498 0.035562642 0.009493555
-0.36509147 -0.1477229 -0.013159628 -0.15625755 -0.12548074 0.2816725 -0.113538325 -0.12208205
-0.037425492 0.014838455 -0.018150983 0.06802421 -0.6249085 -0.044759113 0.029774742 -0.062177386
-0.5269613 0.39456168 -0.0155900195 -0.37808394 -0.2393487 0.18206851 -0.681446 0.05047208
00000000: cd31 153c 9aae dbbd 9021 3f3e c6e5 00bc
00000010: 2f77 40bc dee4 afbe 6971 103e ae71 fd3d
00000020: 4b11 1c3e e69b 19bd 85a7 1ebf 86bd aabb
00000030: 36a8 3bbd 6598 05be 28b5 05bd 8809 64bd
00000040: 3b4d 4dbe d3f4 02bf 38ca e03d b714 6f3e
00000050: a8c3 5dbf e194 b93a fcee 11be 4448 51bc
00000060: 1bf6 f63c c52c ad3d 8ec6 afbd f96c 51bd
00000070: 1a93 a93d a01f c3bd e537 dabe 1667 153e
00000080: 1928 cd3d ccef 883c 5710 05bc c97f 69bd
00000090: 8abc 6cbe bdea 94be c575 c0be 9e5a a8bd
000000a0: 9d23 793e fc91 be3d 0ed9 45be 4427 41bb
000000b0: cb1f 423d f582 02be 934d 37bd 77f4 103e
000000c0: 76f3 ac3d a513 5f3e 86bc ed3c 9ae8 1f3c
000000d0: da26 1d3e 9df9 09be c336 a63d bd27 0f3c
000000e0: 7485 28bf 61d0 313d a6f3 f5bc 2912 9a3d
000000f0: 1ab3 f8be 6879 0dbc aa86 1b3c 51cf 96bb
00000100: defb babc 545f f1be fe5b 04bd ffdc 4bbe
00000110: bbfe be3d a5ce 88bd 0e5e ae3d 9aae dbbe
00000120: 0fbd 00bc e2c5 003d 933f ef3b 3f2b 823e
00000130: 68d6 b5bd bbea de3b dfa4 a13b 4869 a13d
00000140: b73e 6e3c a2e6 df3d d3b4 133d 3a36 e0bb
00000150: edd5 f0bc b5af 283e 8aa8 143d 6dca 383e
00000160: 22d2 6dbe 7bd1 ae3e 866f 943b 7089 fb3d
00000170: 5af5 d7bd 0158 d9bc a2e5 0bbc 2dd2 46be
00000180: 767b 7d3e cce6 42be 12cc a8bc e7ca b83d
00000190: ad4e a0bc 4bb1 313e 0cd0 d53c 5143 debd
000001a0: e070 edbd 933f 3dbf a9be 043d dc01 fcbb
000001b0: ba9f 983e ad2b 803c e6eb 843a a59c aabe
000001c0: c173 ea3c ddca 433e 95ad 9c3d 3649 843c
000001d0: ef19 c9bc 75e4 4abe 6897 2d3e b262 933e
000001e0: 8251 703b 2797 383d 1d5e a4bd 68ff 5e3e
000001f0: 8879 cf3d 4932 08be 87bd 47bf f3de 0a3e
00000200: bd1d 153d a9b6 b7bd fa1a df3d 6b11 3f3e
00000210: 370d 3ebf e00f 453e 4712 123e eac8 25bd
00000220: 3d8e 6dbc b04b cb3d 1c61 793e bd82 d83c
00000230: b336 f6bd b6a1 70bc 93e4 823d f1c3 37bc
00000240: d2c1 f9bb bff3 29bf c10b 7cbe 28ce 54bd
00000250: 2264 8b3e 2708 6b3e 99ec d03d a7c0 903d
00000260: e1ca 04be 57b3 adbc 5a62 273e 2dd6 d53b
00000270: 6a55 ddbe 7b18 b9bd 02c1 debd 3e07 5e3e
00000280: 5e0f c43d 47ef 01bf e82f 85bd 024e 14bc
00000290: 8522 893e 6054 6bbe f064 5abd 3b0f 243e
000002a0: 1c74 c8bd 5d7b da3d aa83 613d 236c 41bf
000002b0: eb86 743e fc9a a6bd f0f3 433e 442a 10b9
000002c0: 4edb 3a3b ea51 68bd 7593 acbd 63b8 d7be
000002d0: 6653 09bf fde1 953c ba6c e9ba 0e0b f5bc
000002e0: 496b 1dbe 0262 e2ba c02a d03d fd35 d1be
000002f0: 5622 373e 39f6 d23d 72f9 68bd 1f70 f7bd
00000300: 2aaf cfbd 680d c23e fcc2 a2be 5faf 96ba
00000310: 2fbf 953e df9d 5e3e 00d0 783d 03f6 91bc
00000320: 2b4e 8c3d ae43 c8bc 9332 81bc 9b1f 7d3e
00000330: 597b 7fbd c299 bbbd 88df edbd b573 803d
00000340: abcc 3f3e af3e 5fbc 3fa1 6abe 170f 52be
00000350: 4b95 09bb 5dd3 f43c 2b11 0dbf 6621 79bd
00000360: d648 89be 80a8 8f3d 2f9b f9bd 7641 0cbe
00000370: 550c 733e f764 f83d 29ef 5f3e 89f5 4f3e
00000380: e8eb 13bf 399b 01bc df4a e5bc 2a91 173e
00000390: c97f 073e 4929 48bd 22aa 113d db8a 1b3c
000003a0: 45ed babe ac44 17be 7b9b 57bc fb01 20be
000003b0: 067e 00be 6137 903e c886 e8bd 2706 fabd
000003c0: 794b 19bd fe1c 733c 5fb1 94bc 4750 8b3d
000003d0: 01fa 1fbf 5555 37bd 29ea f33c b7ad 7ebd
000003e0: f0e6 06bf fd03 ca3e 486d 7fbc 3894 c1be
000003f0: d317 75be 2b70 3a3e 3f73 2ebf d0bb 4e3d

fc3.bias f4 [2]
-0.0030162756 0.037785202
00000000: b5ac 45bb a8c4 1a3d
